data.pth (torch, 11839 bytes, 6 tensors)

l1.weight f4 [8, 147]
-0.49794132 -0.24110669 -0.15706953 -0.038119216 0.5873836 -0.4178518 -0.46373573 -0.5707565
0.5876194 0.76198304 0.0714256 -0.15482214 0.03987119 -0.14039731 0.14332877 -0.2733868
0.17202732 -0.67846334 -0.10222513 -0.387538 -0.18985884 -0.6017572 0.38132668 -0.5378167
0.49060977 0.91158235 -0.5600364 -0.40870827 0.09871618 1.150426 -0.23037085 -0.746285
0.12974621 0.097454265 -0.13140434 0.717746 -0.24903512 -0.16402423 -0.50967896 0.23979943
0.9053617 0.49905032 0.4103147 -0.73043835 0.1745039 -0.47715846 0.44104883 -0.39915112
-0.1274961 0.137134 -0.5922204 -0.38741845 -0.25805828 -0.68830323 -0.16264598 -0.0003674189
-0.38735223 -0.5252343 -0.38746363 -0.3873307 -0.18729289 1.0206832 0.25866267 -0.56660944
0.61174196 0.16428086 0.5699348 0.5089355 -0.95076317 0.6109763 0.29866806 0.38090068
0.82597905 -0.24376827 -0.4667556 -0.33820298 -0.21422282 0.11213144 -0.18130167 0.014033973
0.98558253 0.4426972 0.5258708 -0.047658492 0.30576888 -0.21911694 0.2876106 -0.20844194
-0.80344033 -0.10043743 -0.48787272 0.39520496 0.07323757 -0.30610976 0.8982433 0.4408828
0.4891588 -0.22506298 0.26946166 0.88247436 0.832586 0.54148096 -0.20794341 -0.82080823
-0.12829027 0.8041815 0.18576418 0.8777917 0.5298712 0.46955857 -0.33064643 0.6128185
-0.01744155 0.43510747 -0.41693938 -0.21356195 0.75399774 1.1693336 -0.373026 0.18172784
-0.37985417 0.54084206 0.49036333 -0.50803995 0.83582425 0.31398612 -0.38746628 0.63581336
0.702164 -0.1341442 -0.42422712 0.58254325 0.020712525 0.416721 -1.1811764 -0.015615104
-0.19399211 -0.25405005 1.00813 -0.38732806 -0.13028356 0.10408423 0.27716616 0.20939961
0.13847518 -0.07431981 -0.4986048 0.71026236 0.40574455 0.03946047 -0.53382033 -0.34438235
0.61823136 -0.57957745 0.96489155 0.48627612 -0.45901468 0.078610696 0.390252 -0.09534823
0.2767535 -0.05007953 0.49102598 0.044992153 -0.72954303 0.032641552 1.0820446 0.4875658
1.5352972 0.33398077 0.3107592 -0.38678 -0.7204174 0.13590571 -0.51844794 0.25958547
0.76428205 0.28478718 -0.25774482 0.43204534 0.3826553 0.10211458 1.1731681 0.32836813
0.34873825 -0.21564038 0.5408721 0.07431384 0.4488556 0.7513169 0.77731293 -0.16961077
-0.3126484 0.29251978 0.28280473 -0.40182093 0.36415166 -0.09312411 1.0976787 0.46127385
0.03045673 -0.37729454 0.045262184 -0.51702505 0.44835815 -0.5114692 -0.5148023 0.51201296
0.4178761 0.27989864 -0.0020442582 1.157159 0.44551292 -0.31268373 -0.0549434 0.483605
0.32051513 -0.26541916 0.08704549 -0.4806918 -0.41207016 0.64751756 -0.35583648 0.35373706
0.25839484 -0.42620912 0.44798332 0.532143 -0.16457056 -0.76539075 0.5613323 -0.04050875
0.48059884 0.7480817 0.32557184 0.6062295 -0.2738675 0.40637717 -0.24836405 0.1871158
0.46729073 0.2906259 0.21073197 -0.48099065 -0.44700512 0.62610376 0.77540004 -1.0323231
-0.47541988 0.3647688 -0.5413202 -0.09350644 -0.5539767 -0.2602293 0.11815049 -0.37281796
00000000: 2af2 febe ace4 76be d6d6 20be e522 1cbd
00000010: c65e 163f acf0 d5be c56e edbe 191d 12bf
00000020: 3a6e 163f 5211 433f 9647 923d b289 1ebe
00000030: f94f 233d 50c4 0fbe c7c4 123e 5bf9 8bbe
00000040: ee27 303e c6af 2dbf 695b d1bd 616b c6be
00000050: 5b6a 42be c30c 1abf 403d c33e 5bae 09bf
00000060: 3431 fb3e 765d 693f 8c5e 0fbf 3642 d1be
00000070: b52b ca3d 2941 933f 56e6 6bbe 890c 3fbf
00000080: 31dc 043e 1a96 c73d dc8e 06be 34be 373f
00000090: 1003 7fbe f8f5 27be 527a 02bf fb8d 753e
000000a0: c9c5 673f 8683 ff3e c514 d23e 02fe 3abf
000000b0: 26b1 323e 1d4e f4be 27d1 e13e 895d ccbe
000000c0: 568e 02be db6c 0c3e c29b 17bf b65b c6be
000000d0: 3720 84be a434 30bf ab8c 26be 21a2 c0b9
000000e0: 0853 c6be c175 06bf a261 c6be 3650 c6be
000000f0: b5c9 3fbe bfa5 823f 6f6f 843e 510d 11bf
00000100: 1f9b 1c3f 3e39 283e 3fe7 113f 9949 023f
00000110: 3765 73bf f168 1c3f 05eb 983e 6a05 c33e
00000120: 5d73 533f 649e 79be 97fa eebe f128 adbe
00000130: 3a5d 5bbe 2ba5 e53d 25a7 39be c0ee 653c
00000140: 234f 7c3f 35a9 e23e 789f 063f 8d35 43bd
00000150: bd8d 9c3e 3160 60be b241 933e ce71 55be
00000160: 44ae 4dbf 24b2 cdbd 74ca f9be 4e58 ca3e
00000170: 94fd 953d 6bba 9cbe 46f3 653f 64bb e13e
00000180: 0673 fa3e e976 66be e1f6 893e d7e9 613f
00000190: 5b24 553f 7f9e 0a3f 1eef 54be 7d20 52bf
000001a0: 865e 03be d7de 4d3f f738 3e3e f5b6 603f
000001b0: a4a5 073f fb69 f03e 7d4a a9be ace1 1c3f
000001c0: 95e1 8ebc 68c6 de3e 1479 d5be fcaf 5abe
000001d0: ff05 413f b9ac 953f 44fd bebe dd16 3a3e
000001e0: 3f7c c2be a074 0a3f e710 fb3e e80e 02bf
000001f0: 94f8 553f cac2 a03e fb61 c6be aac4 223f
00000200: 05c1 333f 195d 09be 4c34 d9be 8e21 153f
00000210: 50ad a93c 745c d53e ca30 97bf 7ed6 7fbc
00000220: dea5 46be d912 82be 670a 813f dd4f c6be
00000230: 0e69 05be 1d2a d53d b9e8 8d3e da6c 563e
00000240: 70cc 0d3e fc34 98bd 2149 ffbe c1d3 353f
00000250: c0bd cf3e 4da1 213d 73a8 08bf e252 b0be
00000260: 6944 1e3f 305f 14bf 2203 773f 2ff9 f83e
00000270: f903 ebbe a5fe a03d 1ccf c73e ef45 c3bd
00000280: a2b2 8d3e 3120 4dbd c267 fb3e b149 383d
00000290: 55c3 3abf 26b3 053d 7080 8a3f 39a2 f93e
000002a0: 9e84 c43f 87ff aa3e d41b 9f3e 0708 c6be
000002b0: 466d 38bf de2a 0b3e 01b9 04bf 63e8 843e
000002c0: fda7 433f a0cf 913e 21f7 83be 0c35 dd3e
000002d0: 65eb c33e 7321 d13d 5f2a 963f de1f a83e
000002e0: d28d b23e d5d0 5cbe 9876 0a3f db31 983d
000002f0: 67d0 e53e 4e56 403f fbfd 463f 72ae 2dbe
00000300: 7313 a0be 27c5 953e c8cb 903e 79bb cdbe
00000310: 1672 ba3e dab7 bebd bc80 8c3f 162c ec3e
00000320: 6480 f93c c02c c1be d764 393d c15b 04bf
00000330: 338f e53e a5ef 02bf 15ca 03bf 4813 033f
00000340: dbf3 d53e e04e 8f3e f6f8 05bb c91d 943f
00000350: 451a e43e 1518 a0be 550c 61bd 139b f73e
00000360: 8f1a a43e 05e5 87be e844 b23d 3c1d f6be
00000370: dcfa d2be b6c3 253f 3330 b6be 061d b53e
00000380: 544c 843e 1538 dabe 125e e53e 863a 083f
00000390: 2f85 28be a6f0 43bf 79b3 0f3f 81ec 25bd
000003a0: 0d11 f63e 4882 3f3f 5ab1 a63e db31 1b3f
000003b0: 5c38 8cbe ab10 d03e 2553 7ebe 499b 3f3e
000003c0: bb40 ef3e ebcc 943e 1fca 573e 6844 f6be
000003d0: dbdd e4be 5648 203f 9e80 463f 2a23 84bf
000003e0: 3c6a f3be fac2 ba3e f693 0abf 4e80 bfbd
000003f0: 6bd1 0dbf c63c 85be e2f8 f13d ffe1 bebe

l1.bias f4 [8]
0.3873413 1.087665 0.4306797 0.75289434 0.8075806 1.4776891 0.6293608 0.8675152
00000000: 9951 c63e 9b38 8b3f 0d82 dc3e afbd 403f
00000010: 9abd 4e3f eb24 bd3f ca1d 213f 7a15 5e3f

l2.weight f4 [8, 8]
0.182951 1.1497697 1.5953261 2.0211644 -1.3870547 -0.38886815 1.2042602 -0.7548502
-0.7616795 1.0235211 0.055061493 1.2421588 0.38444403 0.8941714 -1.6523348 0.567053
-0.7983667 2.1562924 0.7720522 0.23150697 0.6208201 -0.9878273 -0.31053713 0.7269588
1.5415796 1.2549094 1.9008713 -1.1833389 1.1951119 0.19653459 0.021727113 -0.3879457
0.36310235 1.2872983 -1.5479368 0.70240223 1.1137602 0.32025397 1.7888037 -0.53371006
1.5005887 -0.451728 0.59023505 0.92358077 1.692635 -0.8167573 -0.68254054 2.0258071
1.1232417 1.0624942 -0.29135835 0.34567162 1.0416349 2.0464513 -1.0776583 -1.0473043
-1.0323144 0.29571658 0.38393667 -1.0157331 0.17042978 2.3403335 1.9660003 1.9128213
00000000: 8257 3b3e a72b 933f a533 cc3f c25a 0140
00000010: 028b b1bf ba19 c7be 3325 9a3f dd3d 41bf
00000020: 6dfd 42bf bd02 833f 2988 613d 0fff 9e3f
00000030: d9d5 c43e 6be8 643f b57f d3bf 632a 113f
00000040: c361 4cbf b200 0a40 37a5 453f 2a10 6d3e
00000050: 11ee 1e3f 40e2 7cbf b9fe 9ebe f919 3a3f
00000060: 7b52 c53f dfa0 a03f c04f f33f a677 97bf
00000070: 6df9 983f 5d40 493e 0ffd b13c d2a0 c6be
00000080: 8de8 b93e 31c6 a43f cb22 c6bf a2d0 333f
00000090: b28f 8e3f 54f8 a33e 85f7 e43f 39a1 08bf
000000a0: 4a13 c03f e448 e7be a519 173f ca6f 6c3f
000000b0: 44a8 d83f 0217 51bf faba 2ebf d3a6 0140
000000c0: 62c6 8f3f cfff 873f ec2c 95be dffb b03e
000000d0: 4b54 853f 0ff9 0240 b5f0 89bf 110e 86bf
000000e0: e122 84bf 2a68 973e 5993 c43e 8b03 82bf
000000f0: 2585 2e3e 06c8 1540 e6a5 fb3f 54d7 f43f

l2.bias f4 [8]
0.1809868 1.1785604 0.22171064 -0.7601836 0.42077366 -0.031311765 0.9596229 1.1119212
00000000: 9b54 393e 11db 963f 1d08 633e 649b 42bf
00000010: a56f d73e c440 00bd d9a9 753f 6f53 8e3f

l3.weight f4 [50, 8]
-0.1395128 -1.7809906 -1.9714962 -0.8097889 0.43910557 -0.39793506 -0.40081704 0.45327923
-2.9825835 0.37258676 -0.14920631 0.016879935 -0.27908218 0.58256626 0.11486212 -0.58714557
-1.1943109 0.30362147 0.31864566 -0.76137483 0.25581184 0.3672547 0.15660778 -2.0195725
-0.21798822 -1.1889546 0.28364244 0.10718702 -1.0931153 0.43659663 -0.9859461 -0.3787136
-1.0638719 -1.0151048 -0.10733745 -0.21287276 -1.5174811 0.4183885 -1.4786755 0.7494694
0.14136693 -0.5463559 0.35442495 0.18433897 -0.64753556 -1.4224086 -0.08030453 -0.3548088
-0.10704742 0.5507371 0.5025518 -0.638994 -0.38195428 -0.8252165 -0.28279507 -0.4644745
-1.0643303 0.48609918 -0.9478456 -0.7332402 0.19397339 0.06733121 0.32090908 -0.1876018
0.05902583 -0.22782147 0.33142018 -2.2132707 -0.2922535 -0.16518839 -1.6066123 0.35331964
0.70375204 -1.1840771 0.16867222 -0.6051793 -0.3755326 -1.2991832 -1.186916 -0.020407077
-0.10352702 0.40282947 -1.819795 -2.1069748 -0.21643814 -0.12018313 -0.092276275 0.17296967
-0.6684123 0.19193056 0.50816584 -0.78865975 -0.17137001 0.39355817 -2.1284769 -0.13971879
-1.5060556 -1.6316079 0.40125656 0.30109853 -0.45920196 0.40237004 -0.6801634 0.057861578
-2.0068953 -1.6459997 -1.2555325 -0.29571784 0.20604841 0.54597884 -0.22104359 0.38764864
-1.9484441 -0.39929807 0.48714393 -0.64555794 0.47410262 0.1474895 -1.2202084 0.45387805
-0.91019714 -1.739406 -1.9550712 0.18777065 0.47971302 -1.7657561 0.4294017 0.43004692
-0.20791316 0.18580955 -0.07665743 -0.4643007 -2.0888033 0.29763365 -0.4193554 0.018946562
-0.020725107 0.41890386 0.52671504 -1.9572735 -0.034120504 0.17826103 -0.9129996 -1.1507192
-1.5947421 -0.1683735 0.087734334 -0.12222239 0.5299628 -0.1758141 0.7348516 -1.3781304
-1.5452764 -1.0606359 -1.3726044 0.2987364 0.3047077 -0.35898116 0.5072621 0.061515294
-2.28859 1.104927 -1.7509667 -1.8818889 -0.42427352 -2.142228 1.0422575 0.82124895
0.09717049 0.27916393 0.30079588 -0.07856921 -0.11355132 -0.23877238 -0.57597166 -1.8857952
-1.1611743 -0.5783191 -1.1416719 -0.7629805 0.75730276 -1.3211033 -1.6431695 0.8268314
-1.9962257 0.73912245 0.58233726 -2.523714 -0.22980079 0.38790667 -0.38736665 0.14046179
-1.1017028 0.149289 0.051533964 -0.045120545 0.4698657 -1.6967084 0.24891588 0.20817879
-1.7292495 0.32242933 0.48621035 -0.048653096 -2.1952255 0.26605052 -0.43004197 0.19039004
-1.2857078 0.4981695 0.4116008 -0.2032388 -0.24870203 0.047559958 -0.11115647 -0.5087529
0.08195048 -1.5106162 0.40248457 0.35092008 -0.16937073 -1.909897 -1.4747708 -0.031556997
0.042400006 0.53367126 -1.3167562 -0.48424944 -0.5851075 -0.39366445 0.3834102 -0.8733413
-0.7757611 0.5641951 -1.5385015 -0.7807778 -0.093868084 0.5239282 0.42258626 -1.7526764
-1.6177512 -0.8786708 -1.0485013 0.2451946 -1.4162219 0.38888383 0.12388562 0.24159661
-1.215483 0.34123394 -1.3431121 0.14307204 -1.4266866 -0.76871717 0.5486688 0.30687612
00000000: 72dc 0ebe 80f7 e3bf fd59 fcbf 534e 4fbf
00000010: 72d2 e03e 25be cbbe e437 cdbe 3714 e83e
00000020: a6e2 3ec0 b1c3 be3e 8ac9 18be ca47 8a3c
00000030: dce3 8ebe 1023 153f d53c eb3d 2c4f 16bf
00000040: 2edf 98bf 4674 9b3e 8625 a33e 76e9 42bf
00000050: c5f9 823e cf08 bc3e ca5d 203e ad40 01c0
00000060: 4e38 5fbe aa2f 98bf 9539 913e de84 db3d
00000070: 34eb 8bbf 9889 df3e f766 7cbf c0e6 c1be
00000080: f42c 88bf f4ee 81bf bdd3 dbbd 51fb 59be
00000090: d23c c2bf 0437 d63e 3d45 bdbf 3add 3f3f
000000a0: 7ec2 103e fbdd 0bbf 3077 b53e 5bc3 3c3e
000000b0: e4c4 25bf 7c11 b6bf b476 a4bd 80a9 b5be
000000c0: ae3b dbbd 1bfd 0c3f 3ca7 003f 1c95 23bf
000000d0: 838f c3be 6341 53bf 84ca 90be 9acf edbe
000000e0: fa3b 88bf fee1 f83e 02a6 72bf a1b5 3bbf
000000f0: f6a0 463e f2e4 893d 324e a43e b01a 40be
00000100: 12c5 713d 084a 69be e8af a93e 3aa6 0dc0
00000110: 40a2 95be 2527 29be 79a5 cdbf 50e6 b43e
00000120: 1829 343f d78f 97bf 69b8 2c3e 08ed 1abf
00000130: cf45 c0be a34b a6bf ddec 97bf be2c a7bc
00000140: f905 d4bd aa3f ce3e 0bef e8bf add8 06c0
00000150: f6a1 5dbe 9322 f6bd 58fb bcbd f61e 313e
00000160: 121d 2bbf 7289 443e 2817 023f 9be5 49bf
00000170: 9f7b 2fbe 7580 c93e f738 08c0 7112 0fbe
00000180: 6ec6 c0bf 87d8 d0bf 8071 cd3e 9629 9a3e
00000190: 851c ebbe 7203 ce3e 301f 2ebf 4300 6d3d
000001a0: f970 00c0 1eb0 d2bf 4ab5 a0bf 5468 97be
000001b0: 5bfe 523e 45c5 0b3f 4059 62be e279 c63e
000001c0: 9e66 f9bf cc70 ccbe ee6a f93e 4943 25bf
000001d0: 94bd f23e 7d07 173e ca2f 9cbf b462 e83e
000001e0: ae02 69bf dba4 debf c63f fabf f346 403e
000001f0: f29c f53e 4c04 e2bf 8ada db3e 1c2f dc3e
00000200: 30e7 54be dc44 3e3e 92fe 9cbd d2b8 edbe
00000210: f4ae 05c0 7063 983e c0b5 d6be d235 9b3c
00000220: b3c7 a9bc 917a d63e ccd6 063f f087 fabf
00000230: f1c1 0bbd 0f8a 363e 57ba 69bf c44a 93bf
00000240: 8220 ccbf 1a6a 2cbe 0fae b33d bb4f fabd
00000250: a4ab 073f 9d08 34be 3c1f 3c3f 9466 b0bf
00000260: 9ecb c5bf ebc2 87bf 80b1 afbf faf3 983e
00000270: a602 9c3e 61cc b7be eedb 013f 76f7 7b3d
00000280: 4278 12c0 3f6e 8d3f ad1f e0bf bce1 f0bf
00000290: 613a d9be 431a 09c0 b268 853f 5f3d 523f
000002a0: 5201 c73d 93ee 8e3e eb01 9a3e e5e8 a0bd
000002b0: 988d e8bd bf80 74be e172 13bf bd61 f1bf
000002c0: 5ca1 94bf b80c 14bf 4e22 92bf b152 43bf
000002d0: 98de 413f ea19 a9bf 6153 d2bf 39ab 533f
000002e0: 5384 ffbf 2137 3d3f 0e14 153f 8884 21c0
000002f0: e650 6bbe b49b c63e ec54 c6be 37d5 0f3e
00000300: 9904 8dbf 37df 183e 4715 533d 52d0 38bd
00000310: 3d92 f03e be2d d9bf cee3 7e3e d22c 553e
00000320: 0c58 ddbf 7515 a53e 90f0 f83e 7848 47bd
00000330: 937e 0cc0 c637 883e 762e dcbe 9bf5 423e
00000340: 1392 a4bf 1310 ff3e 57bd d23e d51d 50be
00000350: bfab 7ebe 3bce 423d 01a6 e3bd a13d 02bf
00000360: a7d5 a73d df5b c1bf 7512 ce3e ccab b33e
00000370: 856f 2dbe 8177 f4bf 4ac5 bcbf e941 01bd
00000380: a1ab 2d3d ae9e 083f 788b a8bf 8bef f7be
00000390: 9bc9 15bf 638e c9be 574e c43e 4c93 5fbf
000003a0: 4898 46bf 176f 103f 9eed c4bf 0ee1 47bf
000003b0: e93d c0bd 2920 063f 3a5d d83e b357 e0bf
000003c0: 7912 cfbf 92f0 60bf 4a35 86bf 4b14 7b3e
000003d0: c246 b5bf c81b c73e beb7 fd3d 1a65 773e
000003e0: f294 9bbf 37b6 ae3e 19eb abbf 7a81 123e
000003f0: ab9d b6bf a6ca 44bf 8f75 0c3f de1e 9d3e

l3.bias f4 [50]
0.31311363 -0.03576454 0.1828511 0.17496958 0.06313094 0.15205611 -0.010514594 0.1720906
0.11101373 0.18988107 0.09301861 -0.26394355 0.11515624 0.025518045 0.18197803 0.0001445388
0.34898844 0.11035946 -0.23324476 -0.0080614025 0.43477836 -0.2628598 0.34032628 0.15662995
-0.16007434 0.18406695 -0.3523215 -0.17206669 -0.0684325 -0.18395138 -0.3208698 -0.076883
-0.40288705 -0.3493303 -0.27659646 0.15672888 0.09326366 0.13627173 -0.11233728 0.10473767
-0.35468632 -0.4180271 -0.081948444 0.2373604 -0.44502357 0.16261417 0.12823632 -0.10701318
0.11075213 0.13322249
00000000: 6e50 a03e d77d 12bd 523d 3b3e 3a2b 333e
00000010: cb4a 813d 99b4 1b3e 6745 2cbc 8538 303e
00000020: 2b5b e33d 2f70 423e 8a80 be3d 9c23 87be
00000030: 09d7 eb3d 380b d13c 7358 3a3e 578f 1739
00000040: 9dae b23e 2404 e23d b7d7 6ebe f913 04bc
00000050: 459b de3e 8f95 86be 3f3f ae3e 9a63 203e
00000060: 87ea 23be 0c7c 3c3e 7c63 b4be 4032 30be
00000070: 5726 8cbd c05d 3cbe 0c49 a4be d674 9dbd
00000080: 3647 cebe 6cdb b2be 0d9e 8dbe 897d 203e
00000090: 0501 bf3d d18a 0b3e 1611 e6bd b480 d63d
000000a0: 7299 b5be a607 d6be 96d4 a7bd 9b0e 733e
000000b0: 21da e3be 5484 263e 6250 033e ba29 dbbd
000000c0: 03d2 e23d 7a6b 083e
